TFLite/model_none_float.tflite (tflite, 66584 bytes, 8 tensors)

model/conv2d_1/Conv2D;StatefulPartitionedCall/model/conv2d_1/Conv2D i1 [32, 3, 3, 3]
-70 16 55 12 -8 -3 17 -3
-14 -72 19 53 127 -30 -97 -11
5 5 21 -2 -19 -9 -1 9
-13 4 10 -3 14 -1 3 -6
4 0 -9 -1 9 -17 2 -127
-96 -73 -2 -10 12 -15 6 6
49 14 -20 85 103 71 88 112
58 -105 -111 -78 26 5 15 -79
-127 -75 111 91 109 -39 26 -27
0 -3 24 -17 35 -39 15 -29
13 -1 2 7 -96 -125 -42 8
-5 7 -1 -4 -5 97 127 44
-5 1 -6 3 2 1 -4 -2
-6 -1 5 0 -15 50 -62 -15
-94 127 59 14 -93 87 -127 77
89 -7 -68 -96 71 58 -68 106
-30 56 -51 23 -47 42 -26 56
-32 -18 -66 0 75 41 -10 -36
-60 55 25 61 126 -127 -19 -34
49 22 -26 -5 -25 27 15 -2
1 0 -25 -30 -62 20 -42 -69
2 -7 20 24 -3 46 -33 25
-104 -4 5 15 14 10 66 3
34 127 -1 4 -30 0 -11 11
9 -2 -7 -2 -4 6 -43 102
-60 -10 -10 20 -10 24 -15 -10
14 -4 71 -127 57 14 -26 12
-2 2 3 -2 2 -5 0 0
4 -3 1 4 19 -7 10 -7
4 1 10 -2 11 -24 3 -127
10 -1 3 4 -5 7 7 16
-27 -2 -6 12 16 -12 -14 -7
00000000: ba10 370c f8fd 11fd f2b8 1335 7fe2 9ff5
00000010: 0505 15fe edf7 ff09 f304 0afd 0eff 03fa
00000020: 0400 f7ff 09ef 0281 a0b7 fef6 0cf1 0606
00000030: 310e ec55 6747 5870 3a97 91b2 1a05 0fb1
00000040: 81b5 6f5b 6dd9 1ae5 00fd 18ef 23d9 0fe3
00000050: 0dff 0207 a083 d608 fb07 fffc fb61 7f2c
00000060: fb01 fa03 0201 fcfe faff 0500 f132 c2f1
00000070: a27f 3b0e a357 814d 59f9 bca0 473a bc6a
00000080: e238 cd17 d12a e638 e0ee be00 4b29 f6dc
00000090: c437 193d 7e81 edde 3116 e6fb e71b 0ffe
000000a0: 0100 e7e2 c214 d6bb 02f9 1418 fd2e df19
000000b0: 98fc 050f 0e0a 4203 227f ff04 e200 f50b
000000c0: 09fe f9fe fc06 d566 c4f6 f614 f618 f1f6
000000d0: 0efc 4781 390e e60c fe02 03fe 02fb 0000
000000e0: 04fd 0104 13f9 0af9 0401 0afe 0be8 0381
000000f0: 0aff 0304 fb07 0710 e5fe fa0c 10f4 f2f9

model/conv2d/Conv2D;StatefulPartitionedCall/model/conv2d/Conv2D i1 [27, 1, 1, 3]
127 0 0 0 127 0 0 0
127 127 0 0 0 127 0 0
0 127 127 0 0 0 127 0
0 0 127 127 0 0 0 127
0 0 0 127 127 0 0 0
127 0 0 0 127 127 0 0
0 127 0 0 0 127 127 0
0 0 127 0 0 0 127 127
0 0 0 127 0 0 0 127
127 0 0 0 127 0 0 0
127
00000000: 7f00 0000 7f00 0000 7f7f 0000 007f 0000
00000010: 007f 7f00 0000 7f00 0000 7f7f 0000 007f
00000020: 0000 007f 7f00 0000 7f00 0000 7f7f 0000
00000030: 007f 0000 007f 7f00 0000 7f00 0000 7f7f
00000040: 0000 007f 0000 007f 7f00 0000 7f00 0000
00000050: 7f

model/conv2d_2/Conv2D;StatefulPartitionedCall/model/conv2d_2/Conv2D i1 [32, 3, 3, 32]
1 9 -2 -6 -3 6 -2 -5
-2 12 6 8 4 2 -4 0
6 -7 7 -2 -7 1 3 -8
-22 -2 -6 0 1 15 4 -2
2 -22 -3 4 4 11 2 -1
-9 3 19 5 -4 9 9 7
7 0 1 -1 6 1 -4 3
3 25 -6 21 -1 -4 -2 -4
-4 -2 -6 -19 -6 -1 -10 -2
0 2 0 -10 19 32 1 -7
9 -2 8 4 4 8 0 -8
-1 -2 -1 -1 3 0 9 0
-4 -4 -4 -13 8 -10 3 2
9 0 3 9 14 -6 5 1
-1 1 2 4 2 -10 -6 -10
-7 5 2 -4 -2 -1 11 1
-7 -12 -8 -27 9 -1 2 -16
12 20 -36 4 23 24 -5 -25
16 2 39 5 10 -13 16 42
31 -27 4 -10 -9 5 22 10
-5 2 -10 -35 -1 0 -4 -7
-9 9 -8 2 46 -33 -4 -3
-5 2 6 -6 -21 0 37 -10
-2 -3 6 -4 -11 5 9 5
9 -1 -3 -28 4 8 9 5
-6 -16 2 -4 7 -6 -20 16
-5 4 -12 2 9 0 -5 10
15 -3 10 -5 2 -9 -14 4
7 19 13 51 -8 -16 -2 18
8 -25 4 -25 -127 -15 -2 32
-37 25 -37 8 13 -5 -7 1
-11 -6 5 21 6 -6 -10 -25
00000000: 0109 fefa fd06 fefb fe0c 0608 0402 fc00
00000010: 06f9 07fe f901 03f8 eafe fa00 010f 04fe
00000020: 02ea fd04 040b 02ff f703 1305 fc09 0907
00000030: 0700 01ff 0601 fc03 0319 fa15 fffc fefc
00000040: fcfe faed faff f6fe 0002 00f6 1320 01f9
00000050: 09fe 0804 0408 00f8 fffe ffff 0300 0900
00000060: fcfc fcf3 08f6 0302 0900 0309 0efa 0501
00000070: ff01 0204 02f6 faf6 f905 02fc feff 0b01
00000080: f9f4 f8e5 09ff 02f0 0c14 dc04 1718 fbe7
00000090: 1002 2705 0af3 102a 1fe5 04f6 f705 160a
000000a0: fb02 f6dd ff00 fcf9 f709 f802 2edf fcfd
000000b0: fb02 06fa eb00 25f6 fefd 06fc f505 0905
000000c0: 09ff fde4 0408 0905 faf0 02fc 07fa ec10
000000d0: fb04 f402 0900 fb0a 0ffd 0afb 02f7 f204
000000e0: 0713 0d33 f8f0 fe12 08e7 04e7 81f1 fe20
000000f0: db19 db08 0dfb f901 f5fa 0515 06fa f6e7

model/conv2d_3/Conv2D;StatefulPartitionedCall/model/conv2d_3/Conv2D i1 [32, 3, 3, 32]
45 12 3 21 -25 -39 -11 -3
5 1 -1 10 9 -12 -1 -14
-4 27 2 9 -1 21 -6 -14
-2 -57 34 -12 22 -19 51 -7
36 103 -4 37 -18 -68 -63 -2
5 8 -1 -14 50 19 -4 6
8 47 62 7 -40 39 -4 -19
-16 -31 44 2 -5 -71 16 -29
36 24 12 -7 -14 -1 -26 -4
-36 11 -5 11 20 19 -22 -13
9 22 -19 33 -11 32 0 15
8 -8 4 -4 -16 0 -13 15
19 25 33 15 4 26 9 13
-22 -7 0 4 -15 -13 -12 -5
8 -8 -48 -13 9 21 13 -52
13 -41 25 21 10 77 -89 0
64 39 -42 37 -53 91 26 -17
27 55 15 4 -20 -7 -26 -24
3 -11 -117 -18 21 -44 -54 -35
-5 25 32 -10 0 127 -41 42
37 11 -9 18 -12 43 13 37
12 -8 -20 11 -13 14 -13 -12
-2 9 -15 -33 -16 14 -7 -5
5 -17 36 6 -20 6 8 26
-29 5 25 -8 11 -24 21 7
-2 -19 -21 24 28 9 29 -22
-8 16 14 -10 13 35 -4 16
5 45 2 1 -11 -3 58 -13
-55 -21 10 -56 70 -18 6 -33
12 -32 -34 18 -19 26 -62 -29
-30 27 76 -21 -7 31 15 37
8 4 16 25 15 -35 -35 17
00000000: 2d0c 0315 e7d9 f5fd 0501 ff0a 09f4 fff2
00000010: fc1b 0209 ff15 faf2 fec7 22f4 16ed 33f9
00000020: 2467 fc25 eebc c1fe 0508 fff2 3213 fc06
00000030: 082f 3e07 d827 fced f0e1 2c02 fbb9 10e3
00000040: 2418 0cf9 f2ff e6fc dc0b fb0b 1413 eaf3
00000050: 0916 ed21 f520 000f 08f8 04fc f000 f30f
00000060: 1319 210f 041a 090d eaf9 0004 f1f3 f4fb
00000070: 08f8 d0f3 0915 0dcc 0dd7 1915 0a4d a700
00000080: 4027 d625 cb5b 1aef 1b37 0f04 ecf9 e6e8
00000090: 03f5 8bee 15d4 cadd fb19 20f6 007f d72a
000000a0: 250b f712 f42b 0d25 0cf8 ec0b f30e f3f4
000000b0: fe09 f1df f00e f9fb 05ef 2406 ec06 081a
000000c0: e305 19f8 0be8 1507 feed eb18 1c09 1dea
000000d0: f810 0ef6 0d23 fc10 052d 0201 f5fd 3af3
000000e0: c9eb 0ac8 46ee 06df 0ce0 de12 ed1a c2e3
000000f0: e21b 4ceb f91f 0f25 0804 1019 0fdd dd11

model/conv2d_4/Conv2D;StatefulPartitionedCall/model/conv2d_4/Conv2D i1 [32, 3, 3, 32]
9 5 -12 -4 -11 33 27 -18
-17 8 14 15 39 14 3 21
1 -12 1 10 -11 -2 12 -21
17 2 1 -8 19 16 0 -38
40 22 32 -39 11 -29 46 20
-9 -8 -19 -4 66 22 64 68
20 15 32 31 -45 10 -25 11
11 -6 -3 12 47 34 11 11
42 19 -6 2 3 22 -24 -15
45 -6 53 -4 18 -2 40 -15
-3 -12 16 5 -8 -2 -6 -21
-8 3 -10 21 13 31 13 37
6 -6 24 -14 -14 17 19 -15
-8 20 -11 43 -7 -3 5 38
-11 32 9 -22 -17 -5 26 -2
-33 -10 2 -8 20 -8 -3 45
-12 71 14 -13 -24 -43 17 -19
68 -28 -46 15 46 -5 -25 46
-30 -3 56 -54 17 -24 6 5
20 -32 -46 3 28 -2 -9 4
31 19 9 -8 17 2 12 20
127 -40 -9 -1 -13 -33 -48 26
-2 -20 35 -5 -16 21 -3 1
-23 24 0 5 38 20 -2 18
-2 43 -11 -2 2 -1 -8 7
15 -8 0 -9 -8 -10 2 3
-16 -30 6 -27 -26 25 16 8
14 -5 -14 14 7 -5 -20 0
24 -61 -37 20 -3 11 59 1
3 20 56 -14 -2 22 16 -30
15 52 17 -1 -22 -28 -32 36
-20 -10 13 -5 2 25 7 -3
00000000: 0905 f4fc f521 1bee ef08 0e0f 270e 0315
00000010: 01f4 010a f5fe 0ceb 1102 01f8 1310 00da
00000020: 2816 20d9 0be3 2e14 f7f8 edfc 4216 4044
00000030: 140f 201f d30a e70b 0bfa fd0c 2f22 0b0b
00000040: 2a13 fa02 0316 e8f1 2dfa 35fc 12fe 28f1
00000050: fdf4 1005 f8fe faeb f803 f615 0d1f 0d25
00000060: 06fa 18f2 f211 13f1 f814 f52b f9fd 0526
00000070: f520 09ea effb 1afe dff6 02f8 14f8 fd2d
00000080: f447 0ef3 e8d5 11ed 44e4 d20f 2efb e72e
00000090: e2fd 38ca 11e8 0605 14e0 d203 1cfe f704
000000a0: 1f13 09f8 1102 0c14 7fd8 f7ff f3df d01a
000000b0: feec 23fb f015 fd01 e918 0005 2614 fe12
000000c0: fe2b f5fe 02ff f807 0ff8 00f7 f8f6 0203
000000d0: f0e2 06e5 e619 1008 0efb f20e 07fb ec00
000000e0: 18c3 db14 fd0b 3b01 0314 38f2 fe16 10e2
000000f0: 0f34 11ff eae4 e024 ecf6 0dfb 0219 07fd

model/conv2d_5/Conv2D;StatefulPartitionedCall/model/conv2d_5/Conv2D i1 [32, 3, 3, 32]
-9 18 20 -65 4 -1 -13 15
-10 -7 32 -82 37 -78 -68 18
-33 -16 32 33 -45 41 16 -33
-11 -21 14 -3 21 3 -45 -25
-49 74 35 -15 -17 -34 -60 21
-3 -27 38 0 77 -16 -68 19
50 -16 102 101 53 90 112 -120
-15 39 -58 -29 -31 -10 1 20
-26 -11 -19 10 -1 -11 17 24
8 27 -8 31 37 14 -42 1
0 -8 10 -15 13 -12 2 1
-13 30 -4 17 -30 16 -26 -10
14 -34 4 -54 13 41 16 21
22 -6 32 -38 -12 -94 -6 39
-11 34 22 -35 -23 38 -87 62
40 -127 77 -6 17 -38 32 -31
-22 10 4 -50 5 -73 58 -31
72 -3 -46 9 -86 -52 76 19
15 -7 -4 -106 -56 48 -115 126
-42 -90 -2 88 -8 92 -30 -1
-32 11 -10 41 10 23 22 25
-22 -1 -9 -39 -14 7 -11 -14
-10 -25 16 8 -5 21 14 3
-16 3 43 -46 -43 -39 -4 19
37 34 2 21 2 -21 33 -13
-13 -35 2 -5 30 36 46 -20
-28 -5 -16 41 37 -34 -2 -31
-4 -26 -54 -14 -21 22 -51 26
64 51 -4 7 9 11 26 -11
-55 -18 -15 -8 37 3 32 -4
-37 -15 -22 49 48 -49 15 -23
2 -3 8 19 42 -5 -23 2
00000000: f712 14bf 04ff f30f f6f9 20ae 25b2 bc12
00000010: dff0 2021 d329 10df f5eb 0efd 1503 d3e7
00000020: cf4a 23f1 efde c415 fde5 2600 4df0 bc13
00000030: 32f0 6665 355a 7088 f127 c6e3 e1f6 0114
00000040: e6f5 ed0a fff5 1118 081b f81f 250e d601
00000050: 00f8 0af1 0df4 0201 f31e fc11 e210 e6f6
00000060: 0ede 04ca 0d29 1015 16fa 20da f4a2 fa27
00000070: f522 16dd e926 a93e 2881 4dfa 11da 20e1
00000080: ea0a 04ce 05b7 3ae1 48fd d209 aacc 4c13
00000090: 0ff9 fc96 c830 8d7e d6a6 fe58 f85c e2ff
000000a0: e00b f629 0a17 1619 eaff f7d9 f207 f5f2
000000b0: f6e7 1008 fb15 0e03 f003 2bd2 d5d9 fc13
000000c0: 2522 0215 02eb 21f3 f3dd 02fb 1e24 2eec
000000d0: e4fb f029 25de fee1 fce6 caf2 eb16 cd1a
000000e0: 4033 fc07 090b 1af5 c9ee f1f8 2503 20fc
000000f0: dbf1 ea31 30cf 0fe9 02fd 0813 2afb e902

model/conv2d_6/Conv2D;StatefulPartitionedCall/model/conv2d_6/Conv2D i1 [27, 3, 3, 32]
1 12 -4 -7 -14 18 -7 -13
-5 -2 4 9 0 -3 -1 12
-7 0 2 0 0 9 3 1
1 2 2 -6 4 -5 10 -1
0 51 6 -19 -9 -5 11 -29
0 -4 2 -29 -2 13 3 16
-24 3 -5 4 -7 4 1 -3
-4 5 14 -3 -50 -36 43 0
5 25 1 5 -3 -2 -14 2
4 0 -1 4 -1 0 4 5
5 -2 0 0 -1 1 -1 -3
-2 7 2 2 -3 -5 6 3
1 9 -2 -4 -127 -1 4 -9
0 -2 3 4 7 -4 5 -10
-4 4 -2 19 0 2 4 -3
1 1 5 0 -8 -2 -5 1
3 -16 8 13 -24 -6 36 -14
5 2 7 58 4 3 5 -51
-6 12 -10 -48 6 -10 -2 -14
-14 1 10 4 64 10 -31 1
1 1 -8 6 -13 27 -3 4
-6 -3 6 1 -34 -2 8 42
-4 -4 -4 -24 0 1 -4 -8
-1 -3 -2 8 37 -3 -30 -9
-1 -4 0 0 -41 -5 -6 12
-1 0 -2 -8 10 -1 0 -6
-5 -2 2 22 -2 -1 3 -3
2 0 1 1 -19 1 -7 -2
9 4 3 -12 18 1 -10 38
-1 -7 -3 0 13 3 -5 -2
-3 -1 5 14 0 -5 -3 -8
1 2 11 5 -15 2 -9 2
00000000: 010c fcf9 f212 f9f3 fbfe 0409 00fd ff0c
00000010: f900 0200 0009 0301 0102 02fa 04fb 0aff
00000020: 0033 06ed f7fb 0be3 00fc 02e3 fe0d 0310
00000030: e803 fb04 f904 01fd fc05 0efd cedc 2b00
00000040: 0519 0105 fdfe f202 0400 ff04 ff00 0405
00000050: 05fe 0000 ff01 fffd fe07 0202 fdfb 0603
00000060: 0109 fefc 81ff 04f7 00fe 0304 07fc 05f6
00000070: fc04 fe13 0002 04fd 0101 0500 f8fe fb01
00000080: 03f0 080d e8fa 24f2 0502 073a 0403 05cd
00000090: fa0c f6d0 06f6 fef2 f201 0a04 400a e101
000000a0: 0101 f806 f31b fd04 fafd 0601 defe 082a
000000b0: fcfc fce8 0001 fcf8 fffd fe08 25fd e2f7
000000c0: fffc 0000 d7fb fa0c ff00 fef8 0aff 00fa
000000d0: fbfe 0216 feff 03fd 0200 0101 ed01 f9fe
000000e0: 0904 03f4 1201 f626 fff9 fd00 0d03 fbfe
000000f0: fdff 050e 00fb fdf8 0102 0b05 f102 f702

model/conv2d_7/Conv2D;StatefulPartitionedCall/model/conv2d_7/Conv2D1 i1 [27, 3, 3, 27]
8 2 -3 -43 2 6 3 -9
3 11 7 2 10 0 -12 16
14 -21 0 -2 2 -2 -6 3
-18 -2 -24 -2 -4 12 -1 11
4 -19 -10 1 31 39 32 36
33 22 -69 30 -75 61 0 29
-34 53 64 -14 -10 -52 2 2
-2 0 6 2 -4 2 1 -3
-14 10 4 -3 2 11 -9 -27
8 0 0 1 -3 3 -3 0
-7 -38 2 11 -3 -18 0 12
-7 -14 0 16 22 33 4 9
-5 2 -28 -3 -38 -13 9 31
1 10 1 -38 -1 -66 28 18
95 -55 -31 -19 -27 13 -21 37
-9 26 -14 -127 37 -70 -3 -2
-47 64 52 -25 9 48 19 -8
-9 -3 4 -15 -2 5 3 3
-6 -22 35 -27 -3 -2 41 11
-29 -6 -1 -7 -6 -14 -1 -1
-3 36 12 0 -1 2 15 -1
2 -1 -1 2 3 0 -8 -1
-1 -16 0 -10 0 -9 8 0
8 1 -4 -4 -6 17 2 -1
-1 16 -1 2 -1 0 0 -14
3 -36 3 -3 -2 -3 7 3
0 24 -10 -16 2 -5 -10 24
-3 0 -2 -1 -9 2 -3 2
3 1 4 3 -12 -1 2 2
-4 -9 1 -1 3 2 5 -2
1 -5 18 2 5 -4 -50 -20
5 4 -9 1 12 13 11 -36
00000000: 0802 fdd5 0206 03f7 030b 0702 0a00 f410
00000010: 0eeb 00fe 02fe fa03 eefe e8fe fc0c ff0b
00000020: 04ed f601 1f27 2024 2116 bb1e b53d 001d
00000030: de35 40f2 f6cc 0202 fe00 0602 fc02 01fd
00000040: f20a 04fd 020b f7e5 0800 0001 fd03 fd00
00000050: f9da 020b fdee 000c f9f2 0010 1621 0409
00000060: fb02 e4fd daf3 091f 010a 01da ffbe 1c12
00000070: 5fc9 e1ed e50d eb25 f71a f281 25ba fdfe
00000080: d140 34e7 0930 13f8 f7fd 04f1 fe05 0303
00000090: faea 23e5 fdfe 290b e3fa fff9 faf2 ffff
000000a0: fd24 0c00 ff02 0fff 02ff ff02 0300 f8ff
000000b0: fff0 00f6 00f7 0800 0801 fcfc fa11 02ff
000000c0: ff10 ff02 ff00 00f2 03dc 03fd fefd 0703
000000d0: 0018 f6f0 02fb f618 fd00 feff f702 fd02
000000e0: 0301 0403 f4ff 0202 fcf7 01ff 0302 05fe
000000f0: 01fb 1202 05fc ceec 0504 f701 0c0d 0bdc
